Model: "sequential"
_________________________________________________________________
Layer (type)                 Output Shape              Param #   
=================================================================
dense (Dense)                (None, 30)                390       
_________________________________________________________________
dense_1 (Dense)              (None, 10)                310       
_________________________________________________________________
dense_2 (Dense)              (None, 1)                 11        
=================================================================
Total params: 711
Trainable params: 711
Non-trainable params: 0
_________________________________________________________________
(1, 12)
Model: "sequential"
_________________________________________________________________
Layer (type)                 Output Shape              Param #   
=================================================================
dense (Dense)                (None, 30)                390       
_________________________________________________________________
dense_1 (Dense)              (None, 10)                310       
_________________________________________________________________
dense_2 (Dense)              (None, 1)                 11        
=================================================================
Total params: 711
Trainable params: 711
Non-trainable params: 0
_________________________________________________________________
(1, 12)
Model: "sequential"
_________________________________________________________________
Layer (type)                 Output Shape              Param #   
=================================================================
dense (Dense)                (None, 30)                390       
_________________________________________________________________
dense_1 (Dense)              (None, 10)                310       
_________________________________________________________________
dense_2 (Dense)              (None, 1)                 11        
=================================================================
Total params: 711
Trainable params: 711
Non-trainable params: 0
_________________________________________________________________
(1, 12)
0 of 6621
100 of 6621
200 of 6621
300 of 6621
400 of 6621
500 of 6621
600 of 6621
700 of 6621
800 of 6621
900 of 6621
